gravenn_checkpoint.pt (torch, 319554 bytes, 36 tensors)

conv_in.weight f4 [32, 4, 3, 3]
0	0xbc7ab0c4	-0.015300933
1	0xbe1f5c07	-0.1556245
2	0xbd39c194	-0.045350626
3	0x3df98fdd	0.12185643
4	0xbdb6d3ac	-0.08927092
5	0x3deebfb3	0.116576575
6	0xbd8d63ab	-0.06903776
7	0xbda733e9	-0.08164198
8	0x3db46c2b	0.08809694
9	0x3dfad97a	0.122485116
10	0xbe0b5535	-0.13606723
11	0xbca49d49	-0.02009453
12	0xbc8e79d0	-0.01739207
13	0xbdc1031d	-0.09424422
14	0x3e1afe10	0.1513598
15	0xbd94688e	-0.07246505
16	0xbd666ff2	-0.056259103
17	0x3dc08c54	0.094017655
18	0xbcc6b290	-0.024255067
19	0x3ca260d6	0.019821566
20	0x3d2b9c20	0.04189694
21	0x3dad2f90	0.084563375
22	0xbe073d0d	-0.13206883
23	0xbcf2cb77	-0.029638035
24	0x3e2257d4	0.15853816
25	0xbd99edd0	-0.07516062
26	0x3dcb26fc	0.09919545
27	0xbd187bc3	-0.037227403
28	0xbdb9b60f	-0.09067928
29	0x3d9e611b	0.07733365
30	0x3e1949fb	0.14969628
31	0x3e1bd32e	0.15217277
32	0xbe205855	-0.15658696
33	0x3de18aff	0.110128395
34	0x3d63b8b9	0.055596087
35	0xbc2a3f8c	-0.010391127
36	0x3cdac27e	0.02670407
37	0x3c92fe74	0.017943598
38	0x3d8a3535	0.0674843
39	0xbccabd62	-0.024748508
40	0x3c7fe79b	0.015619184
41	0x3e142075	0.14465506
42	0xbdfed3f4	-0.124427706
43	0x3ca82f19	0.02053027
44	0x3d27e891	0.040993277
45	0x3d5a6fd5	0.053329308
46	0xbd0857ca	-0.033286847
47	0x3ddab3f6	0.10678856
48	0x3dca3a31	0.098743804
49	0x3e296c2d	0.16545172
50	0x3e1f08e5	0.15530737
51	0xbe1513ef	-0.14558385
52	0xbd6f456c	-0.058415815
53	0x3e06a239	0.1314782
54	0xbdce58e7	-0.100755505
55	0xbdecd17a	-0.11563392
56	0xbd8135b4	-0.06309071
57	0xbda6f64c	-0.08152446
58	0x3c1e5e9b	0.00966611
59	0x3d8e5ee5	0.069516934
60	0xbdae6283	-0.08514883
61	0xbd8d2ca9	-0.06893284
62	0xbd06da7f	-0.032923218
63	0x3e07f70c	0.13277835
64	0x3dcd7f3d	0.100340344
65	0x3d860a79	0.06544966
66	0xbd6b5413	-0.057453226
67	0x3e2c7260	0.16840506
68	0xbda9c762	-0.082899824
69	0x3db8838a	0.09009464
70	0xbdfd1aa4	-0.12358597
71	0x3cc88e54	0.02448193
72	0x3e0d61fd	0.13806911
73	0x3dc4681f	0.09590172
74	0xbe093f3d	-0.1340303
75	0x3db7e895	0.089799084
76	0x3da79fdc	0.08184788
77	0xbcf8c76e	-0.030368533
78	0x3e0a9a8e	0.1353552
79	0xbc782bf6	-0.0151472
80	0x3dd85926	0.10563879
81	0x3d69517f	0.056962486
82	0xbdf9cd85	-0.12197403
83	0x3dcac246	0.09900336
84	0xbd32ede2	-0.043683894
85	0x3b0927c8	0.0020928252
86	0xbd4bc248	-0.049745828
87	0xbdb9c780	-0.09071255
88	0x3d97c821	0.074112184
89	0xbd9fee91	-0.07809175
90	0xbcd40770	-0.025882453
91	0x3c39f17d	0.011349079
92	0x3d85b09b	0.065278254
93	0xbdc43245	-0.09579901
94	0x3ce982e1	0.02850479
95	0xbd5f653f	-0.054539915
96	0x3e00ab3a	0.12565318
97	0xbda254a1	-0.07926298
98	0xbe23ec32	-0.1600807
99	0x3ca3d6b6	0.019999843
100	0xbc9e593f	-0.019329665
101	0xbd8cbfaf	-0.06872498
102	0x3e2ecb14	0.17069656
103	0xbda4af7d	-0.08041284
104	0x3dff7424	0.12473324
105	0x3d95e6be	0.07319401
106	0xbd7f1d7c	-0.062283978
107	0x3d78f90a	0.060784377
108	0xbd3a45f5	-0.045476872
109	0x3df1e69f	0.118115656
110	0xbdd77de2	-0.10522057
111	0x3daff5f6	0.08591835
112	0x3e10693c	0.14102644
113	0xbd83f737	-0.06443637
114	0x3dde8ebd	0.10867069
115	0xbde31be8	-0.11089307
116	0xbd2ed884	-0.042686954
117	0xbe026feb	-0.12738006
118	0x3df9d407	0.12198644
119	0xbddc7ae6	-0.107656285
120	0x3dc3814b	0.09546145
121	0x3d69e4c0	0.05710292
122	0xbdeade06	-0.11468129
123	0x3e1078d8	0.14108598
124	0xbe0d8804	-0.13821417
125	0x3df1a414	0.117988735
126	0xbe0d48b5	-0.13797267
127	0xbddadf18	-0.10687083
128	0xbdc00675	-0.093762316
129	0x3d2c14a4	0.042011872
130	0x3c456df7	0.012050143
131	0xbe1cb785	-0.15304382
132	0x3d68901e	0.056778066
133	0xbc847910	-0.016171008
134	0x3dca47ae	0.09876953
135	0xbd0cb151	-0.03434879
136	0x3c884eae	0.01663908
137	0xbde4ff8f	-0.111815564
138	0x3e19898c	0.14993876
139	0x3cf900c3	0.030395871
140	0x3dbd8224	0.09253338
141	0xbd94dd21	-0.072687395
142	0x3d3a9ba1	0.045558576
143	0x3dd5bdae	0.10436569
144	0xbdec9490	-0.115517735
145	0xbd6f5504	-0.058430687
146	0xbd0ab3e5	-0.033862967
147	0xbda72282	-0.08160879
148	0xbd1155f0	-0.035482347
149	0x3ab2693e	0.0013611687
150	0x3ce965b0	0.028490871
151	0x3de6f20c	0.112766355
152	0xbd1074bc	-0.035267577
153	0xbe03f927	-0.12888013
154	0xbac6ba39	-0.00151617
155	0xbd3e442b	-0.04645173
156	0x3c5bc7e2	0.013414355
157	0xbe1c76a7	-0.15279637
158	0x3d82b365	0.06381873
159	0xbda6ee4c	-0.0815092
160	0xbe1887a8	-0.14895499
161	0x3d354ac8	0.04426077
162	0xbdaa2f2b	-0.08309778
163	0xbcaa8022	-0.020813052
164	0xbdaabadd	-0.083364226
165	0xbd3e64cf	-0.046482857
166	0x3d6d173f	0.057883497
167	0x3e0ccb59	0.13749446
168	0x3d8fb169	0.0701626
169	0x3df9f1bd	0.12204311
170	0x3e24763c	0.16060728
171	0x3c1d23cb	0.009591053
172	0x3e0ba48e	0.13636991
173	0xbdd90ab5	-0.10597745
174	0xbb08c5a2	-0.0020869751
175	0xbe1644b4	-0.14674646
176	0xbd178dd5	-0.037000496
177	0xbe03e4fd	-0.12880321
178	0xbd9b9086	-0.07595925
179	0xbd757296	-0.05992373
180	0x3cc19546	0.02363075
181	0x3dd9bed2	0.10632099
182	0xbe06c878	-0.1316241
183	0xbd9cfcaf	-0.07665383
184	0xbd8b3205	-0.0679665
185	0x3d763f13	0.060118746
186	0x3e0479d7	0.12937103
187	0xbe264f9b	-0.16241305
188	0x3daa5747	0.08317428
189	0x3dd80cf7	0.10549348
190	0xbdd26b1e	-0.10274337
191	0x3e19a781	0.15005304
192	0xbdbb645b	-0.09150001
193	0xbd7e7f5a	-0.06213317
194	0x3cb74acf	0.022374539
195	0xbc94636f	-0.01811382
196	0x3e1062ab	0.14100139
197	0xbd6895bb	-0.05678342
198	0xbd50c421	-0.050968293
199	0xbd961f6e	-0.073302135
200	0x3db75460	0.0895164
201	0x3e0b67b9	0.13613786
202	0x3db7cb2e	0.089743
203	0xbdba24b7	-0.09089034
204	0xbde9a9ef	-0.114093654
205	0x3df487c2	0.11939956
206	0x3d0d9912	0.034569807
207	0x3d076b23	0.033061158
208	0xbd2858dc	-0.041100368
209	0xbded5074	-0.11587611
210	0x3dad0fcc	0.08450279
211	0xbe02efd5	-0.12786801
212	0xbde1c75c	-0.11024353
213	0xbc2693f0	-0.010167107
214	0x3d309d82	0.04311896
215	0x3d920a86	0.071309134
216	0x3e2585be	0.161643
217	0x3d78a4f8	0.0607042
218	0xbdb1d5f8	-0.086833894
219	0x3ce3abd3	0.027791893
220	0xbe22c202	-0.1589432
221	0x3d433114	0.047654226
222	0xbdc22a67	-0.09480744
223	0xbdb82323	-0.08991077
224	0xbd379df8	-0.044828385
225	0xbd204621	-0.03912938
226	0x3bee50d4	0.007272819
227	0xbe23cf9d	-0.15997167
228	0xbe0d1f93	-0.13781576
229	0x3e1060c0	0.14099407
230	0xbe0d64c7	-0.13807975
231	0x3b0bf3ae	0.0021354961
232	0xbd8df0af	-0.069306724
233	0x3d473739	0.04863665
234	0x3e0da899	0.13833846
235	0x3d84b68c	0.064801306
236	0x3e1c881b	0.15286295
237	0xbd97e2ae	-0.074162826
238	0xbcfe9c4b	-0.031080386
239	0x3d7ece5b	0.062208515
240	0x3d47b538	0.048756808
241	0x3ddcc211	0.10779203
242	0x3d0d06af	0.034430202
243	0xbd57bf4a	-0.05267266
244	0x3db33bd5	0.087516464
245	0x3b68e4ae	0.0035536694
246	0xbdfcbb4c	-0.123404115
247	0xbd7274a9	-0.059193287
248	0x3d64c674	0.055853322
249	0x3bc5f670	0.0060413405
250	0x3d3bec8c	0.045879886
251	0xbe23d949	-0.16000856
252	0xbc8d5e9c	-0.017257027
253	0x3d8af5e8	0.06785184
254	0xbe19dce2	-0.15025666
255	0x3bbdbe7b	0.0057905293

bn_in.weight f4 [32]
0	0x3f7d8880	0.9903641
1	0x3f8043c4	1.002068
2	0x3f8008a7	1.000264
3	0x3f802908	1.0012522
4	0x3f80141d	1.0006138
5	0x3f810bc8	1.008172
6	0x3f7ff6a2	0.99985707
7	0x3f7e4f19	0.99339443
8	0x3f7e3b04	0.993088
9	0x3f80d1cb	1.0064024
10	0x3f803d8f	1.0018786
11	0x3f8081a1	1.003956
12	0x3f7f7ac8	0.99796724
13	0x3f7f91fa	0.9983212
14	0x3f808cd6	1.004298
15	0x3f80842e	1.0040338
16	0x3f7fff1e	0.9999865
17	0x3f7f0507	0.99617046
18	0x3f7f669a	0.9976593
19	0x3f7eb229	0.994906
20	0x3f802ae8	1.0013094
21	0x3f807b15	1.0037562
22	0x3f805fe4	1.0029263
23	0x3f7eba1e	0.9950274
24	0x3f7db3f6	0.99102724
25	0x3f8074ad	1.0035607
26	0x3f7ed7bd	0.9954794
27	0x3f801d6d	1.000898
28	0x3f806cdc	1.0033221
29	0x3f7eb2f5	0.99491817
30	0x3f7f5f12	0.9975444
31	0x3f8148b6	1.0100315

bn_in.bias f4 [32]
0	0xbc10fa42	-0.008848729
1	0x3b6d8e5d	0.0036248185
2	0x3b28f6bb	0.0025781828
3	0xbafe796e	-0.0019414851
4	0xba781053	-0.0009462882
5	0x3b126ddb	0.002234331
6	0xbbeddc74	-0.007258946
7	0xbad7100a	-0.0016407978
8	0xbb3b968b	-0.0028623666
9	0x3ba16ef8	0.0049265586
10	0xbb54b2dc	-0.0032455241
11	0x3b7f3605	0.003894211
12	0x3b20aed2	0.0024518264
13	0x3b8f9f90	0.004383035
14	0x3b867fe9	0.0041046035
15	0x3bac51ad	0.00525876
16	0xbb9eecf3	-0.004850024
17	0x3b6ff046	0.003661172
18	0xbb96e05d	-0.004604383
19	0x3bf9c96c	0.0076228883
20	0x3aeb8da0	0.0017971285
21	0x3a39d0dc	0.00070883124
22	0xbaeb848e	-0.0017968582
23	0xbb6f3818	-0.003650194
24	0xbbe55176	-0.0069982363
25	0xbae5ad37	-0.0017522936
26	0xbc1bd643	-0.009511533
27	0xbb0eb0e1	-0.0021772909
28	0xba64538c	-0.0008709959
29	0xbbd69c84	-0.00654942
30	0xbc17b904	-0.00926042
31	0x3a912e37	0.0011076395

bn_in.running_mean f4 [32]
0	0x3e00bbe5	0.12571676
1	0xbda1596c	-0.07878384
2	0xbc668b63	-0.014071318
3	0xbdaeb67f	-0.08530902
4	0xbd23d5ce	-0.039998822
5	0x3d1fd2bb	0.039019328
6	0x3e345140	0.1760912
7	0xbd098c4d	-0.033581067
8	0xbe2b1bf1	-0.16709878
9	0xbde5cc6e	-0.112206325
10	0x3e12ff25	0.14355142
11	0xbeaaec95	-0.33383623
12	0x3db6c588	0.08924395
13	0x3eda9cc9	0.42697743
14	0xbdf96e56	-0.12179248
15	0x3da38244	0.079838306
16	0x3e4dcb85	0.20097168
17	0x3f245c58	0.64203405
18	0x3e0e7cf0	0.13914847
19	0xbdb6b2bc	-0.089208096
20	0xbeac1463	-0.33609304
21	0x3cb3cd2d	0.021948421
22	0x3e6255ce	0.22103044
23	0x3db1c552	0.08680214
24	0x3d54a55f	0.051915523
25	0xbe641bd2	-0.22276238
26	0x3d972cfb	0.07381626
27	0x3db6d484	0.08927253
28	0xbca6fa37	-0.020382984
29	0x3e2c6c4c	0.16838187
30	0x3e40fb74	0.18845922
31	0xbe1d9fee	-0.1539304

bn_in.running_var f4 [32]
0	0x3ea16db3	0.31529006
1	0x3ea4c588	0.32181954
2	0x3e9f8e21	0.31163123
3	0x3ea3f8c2	0.32025725
4	0x3eabcc63	0.33554372
5	0x3e9fcd28	0.3121121
6	0x3ea40403	0.3203431
7	0x3ec11ee0	0.37718868
8	0x3e9ec7bf	0.3101177
9	0x3ea4141c	0.32046592
10	0x3ea73149	0.3265479
11	0x3eab2f2d	0.3343443
12	0x3ea35962	0.3190413
13	0x3eb48a95	0.3526198
14	0x3e9e3f16	0.30907506
15	0x3ea08409	0.31350735
16	0x3e9fbad5	0.3119723
17	0x3ea39c9e	0.31955427
18	0x3eaf189c	0.34198463
19	0x3ea1af77	0.31579182
20	0x3eb99fc8	0.36254716
21	0x3e98f22e	0.29872268
22	0x3ea62da8	0.32456708
23	0x3eabda13	0.33564815
24	0x3ea5e2cc	0.32399595
25	0x3ea9908c	0.33118093
26	0x3ea8afba	0.3294657
27	0x3ead1f4d	0.33812943
28	0x3ea3f70b	0.32024416
29	0x3e9f68fe	0.3113479
30	0x3e9b863a	0.30375844
31	0x3ea427e4	0.32061684

trunk.0.conv.weight f4 [32, 32, 3, 3]
0	0xbd6bafc8	-0.057540685
1	0xbc9b2675	-0.018939236
2	0xbce7d46a	-0.02829953
3	0xbd006e19	-0.031354997
4	0x3d05de00	0.03268242
5	0xbc8ed7a4	-0.01743681
6	0x3d588121	0.052857522
7	0xbd450604	-0.04810144
8	0x3b052586	0.0020316555
9	0xbcd37874	-0.025814272
10	0xbd261aff	-0.04055309
11	0xbb7225e8	-0.0036948863
12	0x3cc0c561	0.023531618
13	0x3d1a8b60	0.037730575
14	0xbd71e778	-0.059058636
15	0xbd01a759	-0.031653736
16	0x3d70c6b7	0.05878326
17	0xbd06f6e1	-0.032950286
18	0x3ce35f01	0.027755262
19	0xbc1f85e0	-0.009736508
20	0xbcaca1f5	-0.02107332
21	0x3c284fb6	0.010272911
22	0xbd7e8497	-0.062138166
23	0xbc90f6a4	-0.017695732
24	0x3ccb97c0	0.024852633
25	0xbbc68451	-0.006058254
26	0xbd3db499	-0.04631481
27	0xbd086bd2	-0.03330595
28	0xbcc6dce7	-0.024275256
29	0xbd1da131	-0.038483802
30	0x3d6bb2c6	0.05754354
31	0xbd2eef6d	-0.042708803
32	0xbd156513	-0.036473345
33	0xbc840e91	-0.016120227
34	0xbccce6f7	-0.025012476
35	0x3ab3c3c6	0.0013714961
36	0x3d299dca	0.041410245
37	0x3d304499	0.04303417
38	0x3d48bf1d	0.049010385
39	0x3d4bcd84	0.04975654
40	0xbb962dbc	-0.0045830887
41	0xbd1bcf08	-0.038039237
42	0x3d70410f	0.058655795
43	0xbd13d99c	-0.0360962
44	0xbbf0606a	-0.007335712
45	0xbd1558c3	-0.036461603
46	0xbcf556f0	-0.029948682
47	0xbc9357b2	-0.017986152
48	0x3d31ffaf	0.04345673
49	0x3ceef18f	0.029167918
50	0x3c3db7fe	0.011579512
51	0x3d3c4085	0.045959968
52	0x3d343963	0.04400004
53	0xbc932809	-0.017963426
54	0xbcaffcd8	-0.02148287
55	0x3caec9ba	0.021336425
56	0xbd474ae7	-0.048655417
57	0xbc614942	-0.013750376
58	0xbd14ca0a	-0.036325492
59	0xbc590384	-0.013245467
60	0xbc9ffaf0	-0.019528836
61	0x3cfc0048	0.030761853
62	0xbd0f1106	-0.034928344
63	0xbd07668e	-0.03305679
64	0x3cae52fc	0.021279804
65	0xbd05af97	-0.03263816
66	0x3d00d421	0.031452302
67	0x3c6a2a5e	0.014292328
68	0x3d084239	0.03326628
69	0xbcc025ec	-0.023455583
70	0x3ce31e9e	0.02772456
71	0xbd318858	-0.04334292
72	0x3d25beb1	0.04046506
73	0xbb03e138	-0.0020123255
74	0x3ba589b7	0.0050518173
75	0xbd358045	-0.04431178
76	0xba356a9d	-0.00069204887
77	0x3cea40bd	0.028595323
78	0x3c97e0d2	0.01853982
79	0x3bf9286e	0.0076036965
80	0x3cace47d	0.021105045
81	0x3ce1a226	0.027543139
82	0xbca21a5d	-0.019787962
83	0xbcacf6e6	-0.021113824
84	0x3d1dd2ac	0.03853099
85	0xbcfc83fd	-0.030824656
86	0xbd2768fe	-0.040871613
87	0xbd10854a	-0.035283364
88	0x3c12539b	0.008931066
89	0x3d0ace69	0.033888254
90	0xbcf57ef5	-0.029967764
91	0x3c57a803	0.013162616
92	0xbc8ed939	-0.017437564
93	0xbb3af7ef	-0.0028529128
94	0x3d723230	0.059129894
95	0x3d4c2cd9	0.049847458
96	0xbca075e1	-0.019587459
97	0xbc457008	-0.012050636
98	0xbc8edddc	-0.017439775
99	0x3d21fd6a	0.039548315
100	0x3d26db07	0.040736225
101	0x3d6db166	0.05803051
102	0xbcb9629e	-0.022630032
103	0x3d6d7d78	0.057980984
104	0xbd365231	-0.044511978
105	0x3c3d65c3	0.011559906
106	0x3d481c3e	0.04885506
107	0xbbcb6dc3	-0.006208153
108	0x3c5b81c8	0.0133976415
109	0x3d426435	0.047458846
110	0xbd598570	-0.05310577
111	0x3cc48653	0.023989832
112	0x3d6b722a	0.057481922
113	0x3ca1bb7e	0.019742724
114	0x3bce6fc0	0.0062999427
115	0x3d18c2d4	0.037295178
116	0x3d3bcdf3	0.045850705
117	0x3cd8f15a	0.026482273
118	0xbd354ad0	-0.0442608
119	0xbd354ed8	-0.044264644
120	0x3c1d95ad	0.009618205
121	0xbd45a321	-0.048251275
122	0x3b02635f	0.0019895656
123	0xbd7bb39c	-0.061450586
124	0x3d58c3e0	0.052921176
125	0xbd3a02ee	-0.04541295
126	0xbd3c299f	-0.04593813
127	0x3b1b4fa7	0.00236986
128	0x3d30a800	0.043128967
129	0xbcf760e8	-0.030197576
130	0x3d05c98e	0.03266292
131	0xbd56b1c1	-0.052415613
132	0xbc67beb3	-0.014144587
133	0xbc09be8a	-0.008407244
134	0x3cfb5890	0.030681878
135	0x3d257215	0.040392
136	0xbd74878e	-0.059699588
137	0x3d58bc00	0.052913666
138	0xbc6f7f5a	-0.014617765
139	0xbd7c2548	-0.06155899
140	0x3a560a76	0.0008165011
141	0x3c927c8a	0.01788165
142	0xbd80b08e	-0.06283675
143	0xba49b1ff	-0.0007694065
144	0x3d3bc43a	0.045841433
145	0x3d429299	0.047503088
146	0x3d3bf2c1	0.045885805
147	0xbce21aed	-0.02760073
148	0xba31eb8f	-0.0006787115
149	0xbc267868	-0.010160543
150	0xbd31455b	-0.043279033
151	0x3cb6e856	0.022327583
152	0x3cdd975d	0.027049715
153	0x3cbb49d6	0.022862356
154	0x3d5c67fd	0.05381011
155	0xbd85655a	-0.06513472
156	0x3d100e74	0.035170034
157	0xbd2a89de	-0.041635387
158	0xbc689079	-0.014194601
159	0xbd385410	-0.045002043
160	0x3d47c94f	0.048775967
161	0x3c88381b	0.016628316
162	0xbd12b45d	-0.03581654
163	0xbc5c1e53	-0.013434964
164	0xbc299e7d	-0.010352728
165	0xbd0513dd	-0.032489646
166	0xbd52d388	-0.051471263
167	0xbca54796	-0.020175736
168	0x3c3bef25	0.011470591
169	0x3d27b266	0.04094162
170	0xbcfd83f1	-0.030946704
171	0xbcd80a8c	-0.026372217
172	0x3d199134	0.037491992
173	0x3b38a3bb	0.0028173763
174	0x3d390fc9	0.04518107
175	0xbca5748f	-0.020197181
176	0xbccec880	-0.02524209
177	0x3d1831b2	0.03715677
178	0x3d4f396a	0.050591864
179	0xbc5ee3e4	-0.013604138
180	0x3c1f6f8e	0.009731187
181	0x3c20e0d1	0.009819225
182	0x3cd2f0ea	0.025749642
183	0x3c505d92	0.012717621
184	0x3c88c1db	0.016694
185	0xbc2f3e1b	-0.010695959
186	0x3d445c7d	0.047939766
187	0xbcb667dd	-0.022266323
188	0xbd260f91	-0.04054219
189	0xbd5006e3	-0.050787818
190	0x3bcd2cdc	0.006261451
191	0x3bd77235	0.006574894
192	0x3cb4ca8b	0.022069236
193	0x3d17ebcd	0.03709011
194	0xbd33ca48	-0.043894082
195	0x3c2491e5	0.01004455
196	0x3d0cedee	0.034406595
197	0xbcd4f864	-0.025997348
198	0x3d28d717	0.04122075
199	0x3d221ddd	0.03957926
200	0xbd13fbf9	-0.03612897
201	0x3d147b94	0.036250666
202	0xbcd6816f	-0.026184766
203	0xbd32c304	-0.043643013
204	0xbd34447b	-0.04401062
205	0x3c42ea46	0.011896675
206	0xbd376917	-0.044777956
207	0xbcc334ff	-0.023828981
208	0xbc6fd0e0	-0.014637202
209	0xbd7807ce	-0.060554318
210	0xbd61942e	-0.055072956
211	0xbc0c6c82	-0.008570792
212	0x3ca59b3c	0.020215623
213	0xbccd9d72	-0.02509949
214	0xbbc0d1d9	-0.005884391
215	0x3d430484	0.04761173
216	0x3cb99f62	0.022659007
217	0xbd14b055	-0.036300976
218	0xbbb98644	-0.0056617577
219	0x3cfc12b4	0.030770637
220	0xbd13478b	-0.0359569
221	0x3d13dcaf	0.036099132
222	0xbbb1d3d3	-0.0054268627
223	0x3cee541c	0.02909284
224	0x3d11e86b	0.03562204
225	0xbd5f3ac5	-0.054499406
226	0x3d2ba444	0.041904703
227	0x3d4ce31e	0.050021283
228	0x3d2e9dfd	0.042631138
229	0x3cbc1b86	0.022962343
230	0xbc071e55	-0.008246978
231	0x3cd89e83	0.026442772
232	0xbd603420	-0.05473721
233	0xba46c69c	-0.00075826957
234	0x3c34ba85	0.011030798
235	0x3d3714a5	0.044697423
236	0xbd75ef66	-0.06004276
237	0xbd852e24	-0.06502941
238	0xbc048844	-0.008089129
239	0x3ce1fda7	0.027586771
240	0x3c4a2a65	0.012339209
241	0xbc891dbd	-0.016737813
242	0x3c8572c1	0.01629007
243	0xbbb675a3	-0.0055682226
244	0x3c5d2794	0.013498206
245	0x3d511c90	0.05105263
246	0x3d7f8dae	0.062390976
247	0xbd513555	-0.051076252
248	0x3d2668d5	0.04062732
249	0xbd5ba614	-0.05362518
250	0xbb8aa2fc	-0.004230855
251	0x3cc645cf	0.02420321
252	0xbd8b44cd	-0.06800232
253	0xbd45ec03	-0.04832078
254	0x3d32397b	0.04351185
255	0x3bcb1a1d	0.0061981813

trunk.0.bn.weight f4 [32]
0	0x3f7db686	0.99106634
1	0x3f7f15d4	0.9964268
2	0x3f80a5ef	1.0050639
3	0x3f7f468d	0.99717027
4	0x3f7e3728	0.9930291
5	0x3f7ffbfe	0.99993885
6	0x3f7e641b	0.993715
7	0x3f807e6c	1.0038581
8	0x3f7f3f32	0.99705803
9	0x3f7eb7c4	0.99499154
10	0x3f7fedda	0.9997231
11	0x3f80c680	1.0060577
12	0x3f802d12	1.0013754
13	0x3f7f25b2	0.99666893
14	0x3f806ca8	1.0033159
15	0x3f7f8797	0.9981627
16	0x3f7ecc4d	0.9953049
17	0x3f7fb470	0.998847
18	0x3f7f7493	0.99787253
19	0x3f7f2464	0.996649
20	0x3f7eaa32	0.9947845
21	0x3f7f392a	0.996966
22	0x3f7fb6a3	0.99888057
23	0x3f7fa07a	0.9985424
24	0x3f7f0082	0.9961015
25	0x3f80df03	1.0068058
26	0x3f7f078d	0.99620897
27	0x3f8066c1	1.0031358
28	0x3f8022e8	1.0010653
29	0x3f809188	1.0044413
30	0x3f806343	1.0030292
31	0x3f80c1c1	1.0059129

trunk.0.bn.bias f4 [32]
0	0xbbf21f75	-0.007389004
1	0x3ac2508d	0.0014825031
2	0x3c077d76	0.008269658
3	0x3ad2f0e6	0.0016093522
4	0xbc06b31e	-0.008221416
5	0xbb910971	-0.0044261743
6	0xbbbb06f5	-0.0057076165
7	0x3ad5bc1c	0.0016306671
8	0xbb82844e	-0.003983057
9	0xbb13162e	-0.002244364
10	0xbb83cd58	-0.0040222816
11	0x3c1a25df	0.009408443
12	0x3b904e9d	0.0044039027
13	0xba124e4a	-0.0005581124
14	0x3bc6d603	0.0060679927
15	0x3bce50cf	0.006296254
16	0xbb213d43	-0.0024603165
17	0x3baa03e1	0.0051884507
18	0x3b212593	0.0024589046
19	0xbb9c7711	-0.004774936
20	0xbbc40666	-0.005982208
21	0x3ba0bf04	0.0049055833
22	0xbab4c00b	-0.0013790143
23	0xbc20fcf3	-0.009825933
24	0x3b97454e	0.004616416
25	0xbafde763	-0.0019371327
26	0xbb8ba367	-0.0042614224
27	0x3b12842b	0.002235661
28	0xbbff7a78	-0.007796582
29	0x3b0ea02c	0.002176295
30	0x3c159c3f	0.00913149
31	0x3b0e94fe	0.0021756287

trunk.0.bn.running_mean f4 [32]
0	0xbd568c62	-0.052379973
1	0xbce41d3f	-0.027845977
2	0xbd8442c7	-0.06458049
3	0x3e2cc90e	0.16873571
4	0x3d010611	0.031499926
5	0xbe337fe7	-0.1752926
6	0xbdd63fe2	-0.104614034
7	0xbe5311be	-0.20612237
8	0x3dbb7776	0.09153645
9	0xbdd24ab6	-0.10268156
10	0x3dd767ad	0.105178215
11	0xbd07a5fa	-0.033117272
12	0xbe683cc0	-0.22679424
13	0xbc5fcebc	-0.013660129
14	0x3e9220fc	0.2854079
15	0xbb87503e	-0.0041294387
16	0xba7162da	-0.00092081504
17	0x3e373a55	0.17893346
18	0x3e2e8e6a	0.17046514
19	0xbda32749	-0.079664774
20	0x3d92e638	0.07172817
21	0x3e0cb72d	0.13741751
22	0x3e2a939a	0.16657868
23	0xbe870eb1	-0.26378396
24	0x3e1f0b62	0.15531686
25	0x3e0a4d5c	0.13506073
26	0x3da70679	0.081555314
27	0xbde206b2	-0.11036433
28	0x3e449d3f	0.1920061
29	0x3e6dd003	0.23223881
30	0x3e96671f	0.2937555
31	0x3cb9500c	0.022621177

trunk.0.bn.running_var f4 [32]
0	0x3ecacfa4	0.39611542
1	0x3eac0e2c	0.33604562
2	0x3eb2507f	0.3482704
3	0x3ebad85c	0.36493194
4	0x3eb937b5	0.36175314
5	0x3eb714de	0.35758108
6	0x3eaac405	0.33352676
7	0x3eb2d20c	0.34925878
8	0x3eb0023c	0.34376705
9	0x3eaa7812	0.3329473
10	0x3ebe8f4c	0.37218702
11	0x3eb1671a	0.34648973
12	0x3eb3e817	0.35138008
13	0x3eb2a6b4	0.3489281
14	0x3eb280c5	0.34863868
15	0x3ecc213a	0.398691
16	0x3eb0f936	0.34565133
17	0x3eaff047	0.34363005
18	0x3ec74680	0.38920975
19	0x3eae9bc1	0.34103206
20	0x3eaa3683	0.33244714
21	0x3eb9d72a	0.3629697
22	0x3ebc3e2c	0.36766183
23	0x3eb0786d	0.34466878
24	0x3eab8950	0.335032
25	0x3eb2df83	0.3493615
26	0x3ea8f696	0.3300063
27	0x3eaed929	0.34150055
28	0x3eb19c47	0.34689543
29	0x3eb4deb9	0.35326174
30	0x3eb38878	0.35065055
31	0x3eacb990	0.33735323

trunk.1.conv.weight f4 [32, 32, 3, 3]
0	0xbc9d6984	-0.019215353
1	0x3cd65089	0.026161449
2	0xbbc807f2	-0.006104463
3	0xbce660d2	-0.02812234
4	0xbd2bc7bd	-0.041938532
5	0xbd340753	-0.043952297
6	0xbd1ad451	-0.037800137
7	0x3c06d432	0.008229302
8	0xbcfbe7ba	-0.030750144
9	0x3cddcad6	0.027074259
10	0x3d1fa424	0.038974896
11	0x3d148c66	0.036266707
12	0xbc5caae4	-0.013468478
13	0xbb9a1670	-0.004702382
14	0x3c363794	0.011121649
15	0x3d38b7ef	0.045097288
16	0xbcd0cb6b	-0.025487622
17	0x3d107d71	0.03527588
18	0x3d106bc0	0.03525901
19	0x3d67bac6	0.056574605
20	0x3d593cb4	0.053036407
21	0xbc08513f	-0.008320152
22	0xbd4bdcdb	-0.04977117
23	0xbcd83268	-0.026391223
24	0x3d5693c6	0.05238702
25	0x3c91a98c	0.017781042
26	0x3d36f282	0.044664867
27	0xbb7ffe13	-0.0039061352
28	0x3cb68151	0.02227846
29	0xbce7cb92	-0.028295312
30	0x3c92a8f8	0.017902836
31	0xbd09ac8b	-0.033611815
32	0xbc483c9f	-0.012221484
33	0x3c0cd7a0	0.008596331
34	0x3c2c2606	0.010507112
35	0xbd40ba37	-0.04705259
36	0xbc2810d5	-0.010257919
37	0x3c0f53d7	0.008748016
38	0x3aa8ec6e	0.0012887844
39	0xbd3cdf20	-0.046111226
40	0x3c2d4439	0.010575348
41	0x3d38adc9	0.04508761
42	0x3c984484	0.018587358
43	0xbd04018c	-0.032228038
44	0x3c088360	0.0083321035
45	0x3af8d894	0.0018985444
46	0xbc091284	-0.008366231
47	0xbd7de43e	-0.061985247
48	0x3bf07648	0.007338319
49	0x3ce8b1d2	0.028405104
50	0xbce84691	-0.028353961
51	0xbd51951a	-0.051167585
52	0x3d026c61	0.03184164
53	0x3d71c0fa	0.059021927
54	0x3d53bec8	0.051695615
55	0xbd888db7	-0.06667655
56	0xbd160f26	-0.03663554
57	0x3d204e6c	0.03913729
58	0x3d18fbdb	0.037349563
59	0x3d07bfd6	0.033141933
60	0x3d240362	0.04004229
61	0xbd7e1096	-0.062027536
62	0xbd536760	-0.051612258
63	0x3cb310b4	0.02185855
64	0xbcff09b2	-0.031132553
65	0xbcbf987f	-0.023388145
66	0x3d3e0e4e	0.04640036
67	0x3d1bf78b	0.038077872
68	0x3d0f31ba	0.034959532
69	0x3d130359	0.035891864
70	0xbd168d30	-0.03675574
71	0xbba366f2	-0.0049866373
72	0x3d2337d9	0.039848182
73	0xbd4543cc	-0.04816036
74	0xbc7b7beb	-0.015349369
75	0x3d7cad5e	0.061688773
76	0xbd191c07	-0.037380245
77	0x3ce57e5f	0.02801436
78	0xbc8017bb	-0.015636316
79	0xbd26cc47	-0.040722158
80	0xbd072fdf	-0.033004638
81	0xbcdca5bc	-0.026934497
82	0xbbd71626	-0.0065639196
83	0x3d1aa63d	0.037756193
84	0x3d094c62	0.03352011
85	0xbc9904b1	-0.018678995
86	0xbd249402	-0.040180214
87	0x3cf544b9	0.029939996
88	0x3d27145d	0.040790904
89	0x3d03a758	0.032142013
90	0x3d46b0c0	0.048508406
91	0xbc988086	-0.018615972
92	0xbcc6d809	-0.024272935
93	0xbc919fcb	-0.01777639
94	0xbc54b9e2	-0.012983771
95	0xbb9ff887	-0.0048819217
96	0x3c87c36e	0.01657268
97	0x3b915519	0.0044351933
98	0xbb316fb3	-0.0027074635
99	0xbd664d5c	-0.05622612
100	0x3bb45a0a	0.0055038976
101	0xbd2825cc	-0.04105167
102	0xbd5833e7	-0.052783873
103	0xbd638a4d	-0.055551816
104	0xbd5d73c1	-0.05406547
105	0xbc762132	-0.015022563
106	0x3d41b79b	0.04729424
107	0xbcff1e40	-0.031142354
108	0xbd40f605	-0.047109623
109	0xbd67d575	-0.056600053
110	0x3cbb796d	0.022885049
111	0xbb85db5e	-0.0040849885
112	0xbd0a501f	-0.033767816
113	0xbd6905fe	-0.05689048
114	0x3bf0492d	0.007332942
115	0x3c98cb3b	0.018651595
116	0xbcb6b10b	-0.022301218
117	0xbd0dd1c8	-0.03462389
118	0x3d3ca3fc	0.046054825
119	0x3d7c4907	0.06159308
120	0xbcbd96c5	-0.023143182
121	0x3cf727db	0.030170372
122	0x3d3df188	0.04637292
123	0xbcfe3ead	-0.031035746
124	0xbd0c9ce7	-0.03432932
125	0xbd2f2249	-0.042757306
126	0xbd218934	-0.039437488
127	0x3d2d8d36	0.042370997
128	0x3d37dfd3	0.04489119
129	0x3d4d1aa6	0.050074242
130	0xbc413e27	-0.011794603
131	0x3cbef88a	0.023311872
132	0xbce2dd1f	-0.02769333
133	0xbca38403	-0.019960409
134	0x3bf88c6c	0.007585099
135	0xbd13a002	-0.036041267
136	0x3cb47e6d	0.02203294
137	0x3d71516c	0.05891554
138	0xbbbcebd4	-0.0057654176
139	0xbd628905	-0.055306453
140	0xbce942c5	-0.028474221
141	0xbbd9ef33	-0.006650829
142	0xbd418261	-0.04724348
143	0xbd2d521c	-0.042314634
144	0xbd35d413	-0.044391703
145	0xbd002426	-0.031284474
146	0xbb77824f	-0.003776688
147	0xbceb6701	-0.02873564
148	0xbce11f63	-0.027480787
149	0x3cf5a39f	0.029985247
150	0xbd028e7b	-0.03187416
151	0x3d130555	0.035893757
152	0x3c1f4ae6	0.009722447
153	0x3d3f3361	0.046679858
154	0xbb037f01	-0.0020064714
155	0xbcb3f0d1	-0.021965416
156	0xbc4994ee	-0.012303574
157	0x3adcb3ee	0.0016838291
158	0x3d57ef57	0.052718487
159	0x3d74ce8d	0.059767295
160	0x3d20fa29	0.03930107
161	0xbcb88e35	-0.022528747
162	0xbd31847d	-0.04333924
163	0xbd7a6e88	-0.061140567
164	0xbcf2009e	-0.02954131
165	0x3c4cba9d	0.012495664
166	0x3d534cc4	0.05158688
167	0x3cbd1406	0.023080837
168	0x3d47ee0f	0.048811015
169	0x3cbbec2b	0.022939762
170	0xbcb9ffe2	-0.022705022
171	0xbcc8d893	-0.024517333
172	0xbd19a3d5	-0.037509758
173	0xbd480859	-0.048836086
174	0xbd5cb8d4	-0.053887203
175	0x3ce10ecf	0.027472882
176	0xbcb7b8dd	-0.022427017
177	0xbbefd0b8	-0.0073185824
178	0x3d35f330	0.044421375
179	0x3cb2d678	0.021830782
180	0x3d131e9a	0.035917856
181	0xbcc555ba	-0.02408873
182	0x3b15598a	0.0022788965
183	0x3c98501b	0.018592885
184	0x3cef9707	0.02924682
185	0x3d16eaca	0.036845006
186	0xbc6d2235	-0.014473488
187	0x3d19d1b4	0.037553504
188	0x3d3e5f6d	0.046477724
189	0x3cf9e813	0.03050617
190	0xbd18dd41	-0.03732038
191	0x3cb76538	0.022387132
192	0xbcdc30ec	-0.026878797
193	0x3d0359fa	0.03206823
194	0xbc4a96ff	-0.012365102
195	0xbcd22299	-0.025651263
196	0xbc0ecb26	-0.008715427
197	0x3cf13da3	0.029448336
198	0xbd42ec06	-0.04758837
199	0x3d3df4f6	0.04637619
200	0x3d24b8a1	0.04021514
201	0x3ce60624	0.0280791
202	0xbc491810	-0.012273803
203	0xbd4ba9d1	-0.049722496
204	0xbb8513ff	-0.0040612216
205	0x3bb8242c	0.0056195464
206	0xbd00b093	-0.031418394
207	0x3c104c2b	0.008807222
208	0xbc88c780	-0.016696692
209	0xbd3f2fc8	-0.046676427
210	0x3c07e08a	0.00829328
211	0x3c8f216c	0.017471991
212	0x3d328628	0.043584973
213	0x3b6e1c67	0.0036332847
214	0xbd2fd5da	-0.042928554
215	0x3cc3b3d9	0.023889469
216	0xbb9aed04	-0.0047279615
217	0xbd3b8cef	-0.0457887
218	0xbd2d9708	-0.042380363
219	0x3d7092c9	0.058733735
220	0x3c145dc3	0.009055558
221	0x3caa5a3d	0.020794982
222	0x3d14d4c4	0.03633572
223	0xbc560d37	-0.013064674
224	0xbc429730	-0.011876866
225	0xbd3a1331	-0.04542846
226	0x3c62f0ac	0.013851326
227	0xbcb82851	-0.022480162
228	0xbd467b79	-0.048457596
229	0xbd5e04ef	-0.054203924
230	0x3d1a5720	0.037680745
231	0x3ca941fc	0.020661347
232	0xbb696041	-0.003561035
233	0x3c3784e2	0.011201115
234	0x3c9d172a	0.019176085
235	0xbcec3c17	-0.028837247
236	0x3c825c4e	0.015913155
237	0xbd1eb808	-0.038749725
238	0xbc051a5f	-0.008123963
239	0x3d04bf1d	0.032408822
240	0x3ce6ccb5	0.028173784
241	0xbd40657b	-0.04697178
242	0xbcf15650	-0.029460102
243	0x3d678d07	0.05653098
244	0x3c1a20de	0.00940725
245	0x3d4d0a46	0.050058626
246	0x3c9b9012	0.018989597
247	0xbce30e6f	-0.027716843
248	0x3ca135cf	0.019678978
249	0xbcb87804	-0.022518165
250	0x3cab49d4	0.020909227
251	0x3d33e863	0.043922793
252	0xbcb512c6	-0.022103678
253	0x3d624cf8	0.055249184
254	0xbd6bb92c	-0.05754964
255	0xbd2693c1	-0.040668253

trunk.1.bn.weight f4 [32]
0	0x3f7fc6c6	0.9991268
1	0x3f8140a8	1.0097857
2	0x3f80f7fb	1.0075678
3	0x3f80746c	1.0035529
4	0x3f7fadbd	0.9987448
5	0x3f805753	1.0026649
6	0x3f7d81c9	0.9902616
7	0x3f8119e4	1.0086026
8	0x3f7df452	0.9920093
9	0x3f7ebe66	0.99509275
10	0x3f7e5602	0.9934999
11	0x3f806f44	1.0033956
12	0x3f7fca3e	0.9991797
13	0x3f8111fd	1.0083615
14	0x3f803bcb	1.0018247
15	0x3f8093df	1.0045127
16	0x3f811ac0	1.0086288
17	0x3f7f1a80	0.9964981
18	0x3f806c20	1.0032997
19	0x3f806dec	1.0033545
20	0x3f7e8a6f	0.9942998
21	0x3f7e1870	0.9925604
22	0x3f7f44d8	0.9971442
23	0x3f7f74cf	0.9978761
24	0x3f813e86	1.0097206
25	0x3f803c80	1.0018463
26	0x3f815b4f	1.010599
27	0x3f80e223	1.0069011
28	0x3f7f6293	0.9975979
29	0x3f7ebaee	0.9950398
30	0x3f80524c	1.0025115
31	0x3f80fa24	1.0076337

trunk.1.bn.bias f4 [32]
0	0xbb2693f9	-0.0025417788
1	0x3aacd53f	0.0013186111
2	0x3c11834c	0.008881401
3	0xbc02eae2	-0.007990571
4	0xbc322223	-0.010872397
5	0xbabc007f	-0.001434341
6	0xbc1bb08c	-0.009502541
7	0x3b6c80c2	0.0036087488
8	0x3a68722d	0.0008867111
9	0xbbb2d7fc	-0.0054578763
10	0xbc105619	-0.00880959
11	0x3bed7eef	0.0072477977
12	0xbb533490	-0.0032227375
13	0xbb0de834	-0.0021653296
14	0x3bb8ad78	0.0056359135
15	0x3c33826a	0.010956386
16	0xbad997e0	-0.0016601048
17	0x3b398f8b	0.0028314318
18	0x3b447d56	0.0029981933
19	0xbba30987	-0.004975501
20	0x3be54c03	0.0069975867
21	0x3b43f684	0.0029901573
22	0xbba4da8b	-0.005030935
23	0xbaf808c1	-0.0018923507
24	0x3c2c83fc	0.010529514
25	0xbbff94a6	-0.0077997027
26	0x3b34a27a	0.0027562664
27	0x3b75a83e	0.0037484313
28	0xbbb98fd5	-0.005662898
29	0x3ba78906	0.00511277
30	0x3ace5f9a	0.0015745044
31	0x3bec85c7	0.007218096

trunk.1.bn.running_mean f4 [32]
0	0xbba862f8	-0.005138751
1	0xbe39341e	-0.18086287
2	0x3dd1d4f0	0.10245693
3	0x3e4216d1	0.18954016
4	0xbec5471c	-0.38530815
5	0x3c2a202a	0.010383645
6	0x3e475b00	0.19468307
7	0x3e3c1241	0.18366338
8	0x3eaba041	0.33520702
9	0xbe259220	-0.16169024
10	0xbe07e473	-0.1327074
11	0xbe425f11	-0.18981577
12	0x3e8d0dc2	0.2754956
13	0x3d6fb098	0.058518022
14	0x3e9894e5	0.29801098
15	0x3c8200e5	0.015869567
16	0xbd953fe4	-0.07287577
17	0x3e87adef	0.26499888
18	0x3bce697f	0.006299197
19	0x3d1f11c8	0.038835317
20	0x3d272bbb	0.04081319
21	0xbeb4f1eb	-0.3534082
22	0x3e9bf7d5	0.30462518
23	0x3db7eebb	0.08981081
24	0xbc16fc09	-0.009215363
25	0x3e5501e2	0.208015
26	0xbda01d27	-0.0781806
27	0xbe872603	-0.26396188
28	0x3d685048	0.056717187
29	0x3deba0b4	0.11505261
30	0x3dc8a10e	0.09796344
31	0xbd1fe9a8	-0.03904119

trunk.1.bn.running_var f4 [32]
0	0x3ed06a2f	0.40706012
1	0x3ed753b6	0.42056054
2	0x3ef2a847	0.4739401
3	0x3eec52f2	0.46157032
4	0x3ecb2026	0.39672965
5	0x3ece2206	0.40260333
6	0x3ecc83bb	0.39944252
7	0x3ed100ec	0.40821016
8	0x3ed7e234	0.42164767
9	0x3ee878d9	0.454047
10	0x3ecddb66	0.4020645
11	0x3ed0c926	0.40778464
12	0x3ed0aea5	0.40758243
13	0x3edc392a	0.43012363
14	0x3ed92b14	0.42415679
15	0x3ecbe819	0.39825514
16	0x3edbb31c	0.42910087
17	0x3ee1dbbf	0.44112965
18	0x3edc290b	0.43000063
19	0x3ec9cd90	0.39414644
20	0x3ee342d0	0.4438691
21	0x3ede4723	0.43413648
22	0x3ed791ce	0.42103428
23	0x3ecf1cf7	0.40451786
24	0x3ed31993	0.4123045
25	0x3f040e1f	0.5158405
26	0x3ed40113	0.4140707
27	0x3ee00a46	0.43757838
28	0x3eeebee6	0.4663002
29	0x3eeabac6	0.45845622
30	0x3ec68715	0.38774934
31	0x3ee4b9fd	0.44673148

trunk.2.conv.weight f4 [32, 32, 3, 3]
0	0xbd7b9b19	-0.06142721
1	0x3cc20ee7	0.023688747
2	0x3d1db87f	0.038506027
3	0x3d2040a4	0.039124146
4	0xbcfde1e7	-0.030991508
5	0xbb983895	-0.004645417
6	0x3d46e5e7	0.048559096
7	0x3d634d38	0.055493563
8	0x3cb964e8	0.022631124
9	0xbc48a7bf	-0.012247025
10	0xbc9d40e8	-0.019195989
11	0x3cc2d959	0.02378528
12	0x3b75b60d	0.0037492544
13	0x3ccf9fbe	0.025344726
14	0x3d4aba6d	0.049494196
15	0x3c51acf1	0.01279758
16	0x3c878ca1	0.01654655
17	0x3ace4d4c	0.0015739589
18	0x3d377feb	0.044799726
19	0xbd3e0df6	-0.046400033
20	0xbbaf87de	-0.005356773
21	0x3d53171e	0.05153572
22	0xbd37ec55	-0.04490312
23	0xbc3ddf65	-0.011588906
24	0xbd52d189	-0.05146936
25	0x3cc7dfad	0.02439865
26	0xbcc9fa89	-0.024655597
27	0x3d07ca6a	0.03315202
28	0xbd108f18	-0.035292715
29	0x3d37f6f7	0.04491326
30	0xbc14bfa3	-0.009078893
31	0x3c473d87	0.012160665
32	0xbd3b0cc8	-0.045666486
33	0x3be1f8d1	0.0068961163
34	0x3b86c84a	0.004113232
35	0xbd2ec157	-0.042664852
36	0x3b962059	0.004581493
37	0x3cfd6eda	0.030936647
38	0xbd1b58ee	-0.037926607
39	0xbbb99953	-0.0056640296
40	0xbd4915e2	-0.049093135
41	0x3d01bd69	0.031674776
42	0x3d1331df	0.035936233
43	0xbc1553a8	-0.0091141835
44	0x3d232684	0.039831653
45	0x3d483163	0.048875224
46	0x3d377df4	0.044797853
47	0x3cddda3c	0.027081601
48	0x3cf50d2e	0.029913511
49	0xbb5b85dd	-0.0033496537
50	0xbd6a6122	-0.05722154
51	0x3cd05728	0.025432184
52	0xbd34f5b5	-0.044179637
53	0xbcea40a9	-0.028595285
54	0x3d6e9145	0.05824401
55	0xbc272ea2	-0.010203989
56	0xbcc4c9e8	-0.024022058
57	0xbc3f8d19	-0.011691355
58	0xbcbc3d82	-0.022978548
59	0xbd1a6d62	-0.03770197
60	0xbb8e6664	-0.004345702
61	0xbc230c8b	-0.009951721
62	0xbccd281e	-0.025043543
63	0x3d6599d6	0.056054913
64	0xbd7d3a31	-0.061823074
65	0x3d4badd2	0.049726315
66	0x3d824edc	0.063626975
67	0xbd80d639	-0.0629086
68	0xbcc3b2dd	-0.023889
69	0xbc47268d	-0.012155187
70	0xbd29fe9a	-0.041502573
71	0xbd1911e1	-0.037370566
72	0xbce5ea50	-0.02806583
73	0xbd2441f2	-0.040101953
74	0x3cecac65	0.028890798
75	0xbc8f7b51	-0.017514857
76	0xbcda7e70	-0.026671618
77	0x3d23edf1	0.04002184
78	0x3c9c3ea6	0.019072842
79	0xbd3f4ff6	-0.046707116
80	0x3d56d414	0.052448347
81	0xbce5b57c	-0.02804064
82	0xbc632d8d	-0.013865841
83	0xbd4684c3	-0.048466455
84	0x3c0a6efa	0.00844931
85	0xbd41b13f	-0.047288176
86	0x3bfcd667	0.0077159884
87	0xbc2346f9	-0.009965652
88	0xbd22a794	-0.039710596
89	0xbad9287b	-0.001656785
90	0x3ce626de	0.028094705
91	0xbd05418a	-0.032533206
92	0x3d3fc8d0	0.04682237
93	0x3d3cfbc4	0.04613854
94	0xbb610318	-0.003433412
95	0x3970cf97	0.00022965517
96	0x3d084917	0.03327283
97	0xbbee0096	-0.0072632534
98	0x3d678afd	0.056529034
99	0xbd04b1d8	-0.032396168
100	0xbc32f709	-0.010923156
101	0x3d7ae0d2	0.06124956
102	0xbcaa5f3d	-0.020797366
103	0x3c0aaa69	0.0084634805
104	0xbc3dac96	-0.011576792
105	0xbd07bb94	-0.033137873
106	0xbc4351b0	-0.011921331
107	0xbd30c2d7	-0.043154564
108	0x3bb68571	0.0055701067
109	0x3cef573a	0.029216398
110	0x39de6cfa	0.00042424334
111	0xbcf5215a	-0.02992313
112	0xbb94fa2c	-0.0045464244
113	0x3b8916cd	0.0041836263
114	0x3d44beb2	0.048033424
115	0xbceba1c1	-0.028763654
116	0xbd0277cf	-0.03185254
117	0xbc4d8385	-0.012543564
118	0x3d1d3455	0.038379986
119	0x3ce5c808	0.028049484
120	0x3ce179ba	0.027523864
121	0xbd54cfb4	-0.051955894
122	0x3d2549af	0.040353473
123	0xbc9efdfe	-0.019408222
124	0xbd2e3467	-0.042530444
125	0x3b8e393f	0.0043403204
126	0x3d647dd5	0.055784065
127	0x3d4c24f6	0.049839936
128	0xbc959937	-0.018261535
129	0xbc1f628d	-0.009728086
130	0x3d66093f	0.05616116
131	0xbc0fd879	-0.008779638
132	0x3c3045ca	0.0107588265
133	0x3bdc54f5	0.006723995
134	0xbd6b050c	-0.05737786
135	0x3d367957	0.044549312
136	0xbced9c6f	-0.029005257
137	0x3bf46e42	0.007459433
138	0x3d36e94c	0.044656083
139	0xbd415e9e	-0.047209375
140	0x3d2626d5	0.040564377
141	0x3ce17dc0	0.027525783
142	0xbc9edc26	-0.019392084
143	0xbcac5363	-0.021035856
144	0xbd3821d3	-0.044954132
145	0x3ce3a189	0.027786987
146	0xbd89c3e5	-0.06726817
147	0x3d22dbef	0.039760526
148	0x3d6d156e	0.057881765
149	0xbcb076a6	-0.021540951
150	0x3d5adff1	0.053436223
151	0x3bc04a84	0.005868258
152	0x3b86abec	0.00410985
153	0x3c1ed1e4	0.0096935965
154	0x3d629809	0.055320773
155	0x3cb85cca	0.022505183
156	0x3c5328aa	0.012888113
157	0x3d633c10	0.055477202
158	0xbd54919c	-0.051896676
159	0x3d44d60e	0.0480557
160	0x3b521924	0.0032058442
161	0x3d056535	0.03256722
162	0x3cbd6ee4	0.023124166
163	0xbd2bf800	-0.041984558
164	0x3d5b5f36	0.053557597
165	0x3d57ff37	0.052733626
166	0x3d78badc	0.060725078
167	0x3d266e86	0.040632747
168	0x3d62e9cd	0.05539875
169	0x3d0e0985	0.034677047
170	0x3d1c69e0	0.038186908
171	0xbcfc39e9	-0.030789332
172	0x3cffbf09	0.031219022
173	0x3d815d62	0.063166395
174	0x3bd72f3c	0.00656691
175	0x3c8b0f66	0.016975116
176	0x3c00b274	0.007855047
177	0xbb817ef1	-0.0039519
178	0x3ce80974	0.02832482
179	0x3d40a47b	0.04703186
180	0xbd34cac3	-0.04413868
181	0xbccb7ec9	-0.02484073
182	0xbd5635de	-0.052297466
183	0x3cc92ac2	0.024556521
184	0xbd348974	-0.044076398
185	0xbca14ef7	-0.019690974
186	0xbcc3879a	-0.02386837
187	0xbcb9ec16	-0.022695582
188	0x3d219cea	0.039456286
189	0xbbe15ace	-0.00687728
190	0xbd0d4c3f	-0.034496542
191	0x3d5f89ea	0.054574884
192	0xb9b91388	-0.00035300502
193	0xbd3e143b	-0.046406012
194	0xbc5ddab7	-0.013540915
195	0xbd66886e	-0.056282453
196	0xbcc798ee	-0.024364915
197	0xbd1da9ce	-0.038492016
198	0xbd5387ab	-0.051643055
199	0x3cbfc61f	0.023409901
200	0x3cdc79ce	0.02691355
201	0xbcd2f29e	-0.025750455
202	0xbd637a9b	-0.055536848
203	0xbcc2aee1	-0.02376503
204	0x3d673471	0.056446496
205	0xbbe3572a	-0.006937881
206	0x3c3b3564	0.011426304
207	0xbc86b9f8	-0.016446099
208	0xbd7e0b29	-0.062022362
209	0xbaa1ed00	-0.0012353957
210	0x3ceac260	0.028657138
211	0xbc9356fb	-0.017985811
212	0x3c175ca3	0.009238395
213	0x3bc2e787	0.0059480104
214	0xbd491fae	-0.049102478
215	0x3bce53e4	0.0062966216
216	0xbce29dd9	-0.027663158
217	0x3d140590	0.036138117
218	0x3d44be23	0.04803289
219	0xbce13354	-0.027490295
220	0x3d2d0b1c	0.042246923
221	0x3c19fb48	0.009398289
222	0x3ce6ce40	0.02817452
223	0xbd212d80	-0.039350033
224	0xbd5f7e71	-0.054563943
225	0xbd33cd69	-0.043897066
226	0xbaa8a17a	-0.0012865507
227	0xbd0919ba	-0.0334718
228	0x3c448ac9	0.01199598
229	0xbc4914a4	-0.0122729875
230	0x3ce2b428	0.027673796
231	0xbd0949ac	-0.033517525
232	0x3d6ff700	0.058585167
233	0x3c1426b0	0.009042427
234	0xbc6582e4	-0.014008258
235	0xbcbe67de	-0.023242887
236	0xbc498d18	-0.012301706
237	0x3d1c788b	0.038200896
238	0x3d47ffda	0.048827983
239	0x3d0ac287	0.033876922
240	0x3c8edbeb	0.01743885
241	0x3c837a0a	0.016049404
242	0xbd6ebf58	-0.05828795
243	0xbd020949	-0.031747136
244	0x3d10ab24	0.035319462
245	0xbca6d850	-0.020366818
246	0x3ce20acd	0.02759304
247	0x3d2d2895	0.04227503
248	0xbc84f73b	-0.01623117
249	0xbcab8110	-0.020935565
250	0xbd6a9e92	-0.05728013
251	0x3b7a684c	0.0038209138
252	0xbd12a279	-0.035799477
253	0x3d7249c3	0.059152376
254	0xbd23fbae	-0.040034942
255	0x3d27e52e	0.040990047

trunk.2.bn.weight f4 [32]
0	0x3f7df1f5	0.9919732
1	0x3f8105aa	1.0079854
2	0x3f80540c	1.0025649
3	0x3f7eb09a	0.9948822
4	0x3f816089	1.0107585
5	0x3f816db8	1.0111609
6	0x3f8054f2	1.0025923
7	0x3f801512	1.000643
8	0x3f7ef7c5	0.99596816
9	0x3f8029f8	1.0012808
10	0x3f800515	1.0001551
11	0x3f80f49d	1.007465
12	0x3f7e59e9	0.9935594
13	0x3f810362	1.0079157
14	0x3f805ed8	1.0028944
15	0x3f7ff313	0.99980277
16	0x3f811e93	1.0087456
17	0x3f811d98	1.0087156
18	0x3f7f3f35	0.9970582
19	0x3f7ebee9	0.99510056
20	0x3f81454b	1.0099272
21	0x3f7de953	0.9918415
22	0x3f8083f6	1.0040271
23	0x3f81141a	1.008426
24	0x3f7ea0fc	0.9946439
25	0x3f8016a9	1.0006915
26	0x3f7d72c1	0.99003226
27	0x3f7eeed9	0.995832
28	0x3f7e9db2	0.99459374
29	0x3f8165c7	1.0109185
30	0x3f7f8668	0.9981446
31	0x3f7f026c	0.9961307

trunk.2.bn.bias f4 [32]
0	0xbb3ff693	-0.0029291257
1	0x3ac6fe79	0.001518204
2	0x3be85357	0.007090013
3	0xbbe769cb	-0.007062172
4	0xba9629fd	-0.0011456605
5	0x3c32500e	0.010883344
6	0xbbe932c6	-0.0071166484
7	0x3b5eeb7f	0.0034014878
8	0x3ba10713	0.0049141734
9	0x3a94f5a8	0.0011364715
10	0xbba3f794	-0.005003879
11	0x3b164acc	0.0022932766
12	0xbbd4079f	-0.006470635
13	0xbb0a240c	-0.0021078615
14	0x3bd2ab5d	0.0064291195
15	0x3bbb7f5d	0.00572197
16	0x3bc0c10f	0.0058823894
17	0x3a171a3c	0.0005764102
18	0xbaf685f7	-0.0018808235
19	0xba4196ed	-0.00073848554
20	0x3b2d9ff8	0.0026493054
21	0x3aa2453e	0.0012380255
22	0xbbab4f71	-0.005227976
23	0x3aeea0df	0.0018205902
24	0x3b912ed0	0.0044306293
25	0x3b7aadcb	0.0038250561
26	0x3a026558	0.0004974208
27	0x3b4c4fb2	0.0031175432
28	0xbbac4711	-0.005257495
29	0x3c1be713	0.009515542
30	0xbab16662	-0.0013534541
31	0x3c09b3fb	0.008404727

trunk.2.bn.running_mean f4 [32]
0	0x3e470baf	0.1943805
1	0x3e95945b	0.2921475
2	0xbe82605c	-0.2546414
3	0x3ea9d01a	0.3316658
4	0x3c159810	0.009130493
5	0x3b596250	0.003317017
6	0x3ee3d040	0.4449482
7	0xbe8c43dc	-0.27395523
8	0x3e167bf2	0.14695719
9	0x3e055ef6	0.13024506
10	0x3d9937ff	0.074813835
11	0xbddbfd86	-0.10741715
12	0x3d150170	0.036378324
13	0xbda106ca	-0.07862623
14	0xbdd4c152	-0.103884354
15	0x3e3026e3	0.17202334
16	0x3de58fa8	0.11209041
17	0xbe01870a	-0.1264917
18	0x3e4aacd4	0.19792491
19	0xbc98e3b9	-0.018663274
20	0xbd9d92c5	-0.0769401
21	0xbe2a659f	-0.16640328
22	0x3cf51929	0.029919224
23	0x3e187e7c	0.14892
24	0xbe0c25de	-0.1368632
25	0x3c29b87b	0.010358925
26	0x3d34d64e	0.04414969
27	0xbdcf612a	-0.101259544
28	0x3d79c8ab	0.060982388
29	0xbb2a0af0	-0.002594646
30	0xbd9e782d	-0.077377655
31	0x3e87a545	0.26493278

trunk.2.bn.running_var f4 [32]
0	0x3f184a6e	0.5948857
1	0x3efffe18	0.49998546
2	0x3f014033	0.50488585
3	0x3f0823ab	0.53179425
4	0x3ef6c50c	0.4819721
5	0x3eebfa6e	0.460895
6	0x3f053706	0.52037084
7	0x3efd103c	0.49426448
8	0x3f07f6ce	0.5311097
9	0x3efebc4d	0.49753037
10	0x3f06e2c8	0.5268979
11	0x3ef6efdb	0.4822987
12	0x3f03bddc	0.5146158
13	0x3ef12b36	0.4710328
14	0x3efdcc37	0.49569866
15	0x3f05d5e9	0.52279526
16	0x3f041cc5	0.516064
17	0x3f02b227	0.5105309
18	0x3ef17751	0.47161344
19	0x3ee57131	0.4481292
20	0x3f0503b4	0.51958776
21	0x3f027731	0.5096312
22	0x3eef49a5	0.46735874
23	0x3ee34545	0.44388786
24	0x3ef95636	0.48698586
25	0x3eee09f8	0.4649198
26	0x3f05a2e2	0.52201664
27	0x3ef631ad	0.48084775
28	0x3ef39c82	0.47580343
29	0x3efb6f0d	0.49108163
30	0x3ef45a87	0.47725317
31	0x3f06de73	0.5268318

trunk.3.conv.weight f4 [32, 32, 3, 3]
0	0xbd5d5aa6	-0.054041527
1	0x3d4d9f78	0.05020091
2	0x3cf89a62	0.030347053
3	0x3d426d6c	0.047467634
4	0x3c1f3d57	0.009719214
5	0x3d63b745	0.0555947
6	0xbc6c8e34	-0.014438201
7	0xbca8da53	-0.020611918
8	0xbcffd73c	-0.031230561
9	0xbcd96a82	-0.026540045
10	0x3c14a494	0.009072442
11	0xbd62b95c	-0.055352554
12	0x3d6a98d0	0.05727464
13	0xbb7a42ac	-0.0038186712
14	0x3c8580aa	0.016296703
15	0x3ccbe65a	0.024890114
16	0x3cb20d2d	0.021734798
17	0xbd02b3e5	-0.031909842
18	0xbd0d9e4f	-0.034574803
19	0x3ca942bc	0.020661704
20	0x3d535240	0.05159211
21	0x3c2c13b4	0.0105027445
22	0x3c193e5a	0.009353245
23	0xba9afb15	-0.0011824096
24	0xbd0d29a1	-0.03446353
25	0xbc6e3a5e	-0.014540283
26	0x3d1f4549	0.038884435
27	0xbd5b2b8d	-0.05350833
28	0xbc3dc4c7	-0.01158256
29	0x3d307ba4	0.043086663
30	0x3ce1b2a1	0.027550997
31	0x3ce70ac5	0.028203378
32	0xbd22c4f4	-0.03973861
33	0x3d31fead	0.04345577
34	0x3b2a9b6f	0.0026032587
35	0xbc605f23	-0.013694557
36	0xbd05f330	-0.032702625
37	0x3d76c775	0.06024881
38	0x3cf1a157	0.029495878
39	0xbc3cff3b	-0.011535461
40	0x3c46fee5	0.0121457325
41	0x3d305704	0.043051735
42	0x3cdb0b45	0.026738772
43	0xbca737b9	-0.020412313
44	0x3d615e39	0.0550215
45	0x3ceb3956	0.028713863
46	0xb9f5dfc0	-0.00046896748
47	0x3cf27fed	0.029602015
48	0x3d07557e	0.033040516
49	0xbc22781f	-0.009916334
50	0x3d211f60	0.039336562
51	0x3c4b9668	0.012425996
52	0x3d81ebcb	0.06343802
53	0xbd42c001	-0.04754639
54	0xbc4e3209	-0.0125851715
55	0x3bf21fd2	0.007389047
56	0xbd2b9a7d	-0.04189538
57	0xbcbc61cb	-0.02299585
58	0xbd5dc690	-0.054144442
59	0x3bd8872f	0.006607912
60	0x3d25e663	0.040502917
61	0xbd055860	-0.032554984
62	0x3d42fee8	0.04760638
63	0x3d4bda69	0.04976884
64	0xbd01825e	-0.03161847
65	0xbd402e2b	-0.04691903
66	0x3bac7769	0.0052632582
67	0x3c83c3c7	0.016084565
68	0x3c95370d	0.018214727
69	0xbcfd686e	-0.030933585
70	0x3c09b99e	0.008406071
71	0x3d52b1e0	0.051439166
72	0xbd0c537a	-0.034259297
73	0xbc24ac7e	-0.010050891
74	0xbc048416	-0.008088132
75	0x3d52bc3f	0.051449057
76	0x3cf88bdc	0.030340128
77	0xbd159635	-0.0365202
78	0x3d07679b	0.03305779
79	0xbd16ef12	-0.03684909
80	0x3d1c82ad	0.03821056
81	0x3d03bcf7	0.032162633
82	0xbd6c5157	-0.05769476
83	0xbd688777	-0.056769814
84	0xbc1b7f57	-0.009490809
85	0x3cc3e2b1	0.023911806
86	0xbc61637e	-0.013756631
87	0xbcc7a084	-0.024368532
88	0x3a9e602b	0.0012083104
89	0x3d1023f0	0.035190523
90	0x3d621746	0.055197977
91	0xbd114c98	-0.035473436
92	0xbbda0fe2	-0.0066547254
93	0x3cd6601a	0.026168872
94	0x3d31ec6d	0.043438364
95	0x3c267b4f	0.010161235
96	0xbd54ef80	-0.051986217
97	0x3c8c3372	0.017114375
98	0xbd209c5a	-0.03921161
99	0xbc2d82f8	-0.010590307
100	0xbd10b23d	-0.03532623
101	0x3d82f1e2	0.06393792
102	0xbc50baba	-0.012739832
103	0x3d08a4ec	0.033360407
104	0x3d4faeab	0.050703686
105	0xbce97c74	-0.028501727
106	0xbcace4b4	-0.021105148
107	0x3d570042	0.05249048
108	0x3d6158bd	0.055016268
109	0xbd23143a	-0.03981421
110	0xbca77b33	-0.020444488
111	0x3d7b602d	0.061371017
112	0xbc4c412b	-0.012466709
113	0x3c959bca	0.018262763
114	0xbd114ab6	-0.03547164
115	0x3d0d064f	0.034429844
116	0x3cdd5afb	0.027020922
117	0x3b1ab6cc	0.002360749
118	0x3c1412ec	0.009037714
119	0xbba197f8	-0.004931446
120	0xbd7d0fdf	-0.061782714
121	0x3d72d262	0.059282668
122	0xbade7f26	-0.0016975149
123	0xbc4d9624	-0.012548003
124	0xbba036b8	-0.0048893355
125	0x3b5fdf74	0.0034160288
126	0xbd0e05a4	-0.034673348
127	0x3cc345a2	0.023836914
128	0xbcb15018	-0.021644637
129	0x3c75b836	0.014997533
130	0x3caca686	0.021075498
131	0x3d040776	0.032233678
132	0x3cbade8f	0.022811202
133	0x3b7739be	0.0037723626
134	0x3cc7c956	0.024387997
135	0xbd3c9bb7	-0.04604694
136	0xbc6e59fd	-0.014547822
137	0x3d463ed5	0.048399765
138	0xb9754ac5	-0.00023392875
139	0xbd773a57	-0.06035837
140	0xbcb76607	-0.022387518
141	0xbd6b59ba	-0.057458617
142	0x3c9a8f22	0.01886708
143	0x3ac70054	0.0015182593
144	0x3d6cf2d0	0.05784875
145	0x3d828406	0.06372838
146	0xbcef821b	-0.029236844
147	0xbd5a9bf7	-0.053371396
148	0x3ce10c9e	0.027471837
149	0xbd525931	-0.05135459
150	0xbd3e8e40	-0.04652238
151	0xb9069ab0	-0.00012836861
152	0xbd367256	-0.044542633
153	0x3c4a7354	0.012356598
154	0x3d27ea76	0.040995084
155	0xbd307571	-0.04308075
156	0xbc798dbd	-0.015231547
157	0x3d5d9d35	0.054105002
158	0xbc2432ad	-0.010021848
159	0x3b9abb40	0.004722029
160	0x3a0219a6	0.00049629284
161	0x3d07023f	0.032961126
162	0x3d2c58ef	0.042077
163	0xbd2369db	-0.039895874
164	0x3cd219ee	0.02564713
165	0xbc94d886	-0.018169653
166	0x3d492e88	0.04911664
167	0xbcd7fbbc	-0.026365153
168	0xbd2b7a52	-0.0418647
169	0x3caa4b51	0.020787867
170	0xbd3fb753	-0.04680569
171	0xbc2de03c	-0.010612544
172	0x3c664ce2	0.014056416
173	0xbd4dd2ac	-0.05024974
174	0xbd1dfdf2	-0.03857226
175	0x3d28c05e	0.04119908
176	0xbd062bd2	-0.032756634
177	0xbd7d1db3	-0.0617959
178	0x3cabfd55	0.020994822
179	0x3c18a71e	0.009317188
180	0x3bf041ac	0.0073320474
181	0x3d4a2cde	0.049359195
182	0xbbf548be	-0.007485478
183	0xbc9689c8	-0.018376246
184	0x3d1512cf	0.03639489
185	0x3c8ed4cd	0.017435456
186	0xbccaf47b	-0.02477478
187	0x3cfa6b17	0.030568643
188	0xbd1f3062	-0.0388645
189	0xbd5affd5	-0.053466637
190	0xbd0f0063	-0.03491248
191	0x3934ae16	0.0001723099
192	0x3d50f1b2	0.05101175
193	0x3d1cde5b	0.038297992
194	0x3d59a6a9	0.053137455
195	0xbb23874d	-0.0024952472
196	0xbd3e68b8	-0.046486586
197	0xbcf6b9ce	-0.030117895
198	0xbd446a4e	-0.047952943
199	0x3d669348	0.056292802
200	0xbd810a91	-0.063008435
201	0x3d7dfe22	0.062009938
202	0xbd28de0c	-0.041227385
203	0x3c9c5a32	0.019085977
204	0x3d1cdc6a	0.03829614
205	0xbd291fd9	-0.041290138
206	0xbd6165dd	-0.055028785
207	0x3c99ad82	0.018759493
208	0xbca7ed56	-0.020498913
209	0xbbf8b7e0	-0.007590279
210	0xbcc0f86d	-0.023555959
211	0x3d4f991b	0.050683122
212	0xbbfda86b	-0.0077410243
213	0xbd33ce34	-0.043897822
214	0xbd1e7460	-0.038685203
215	0xbc940241	-0.018067481
216	0xbd308834	-0.043098643
217	0xbcf662d9	-0.030076431
218	0x3add369f	0.001687724
219	0x3cab3d26	0.020903181
220	0xbc8a7e20	-0.016905844
221	0xbafa27b1	-0.0019085315
222	0xb9bb7310	-0.00035753148
223	0xba824ce0	-0.0009941123
224	0x3d049fc8	0.03237894
225	0xbd0da0ad	-0.03457706
226	0x3d814f9a	0.06314011
227	0xbd20c9c9	-0.039254937
228	0xbd42b781	-0.047538284
229	0xbd22f09e	-0.03978025
230	0x3d3dfee3	0.046385657
231	0xbcc2051c	-0.023684077
232	0x3ce4c743	0.027927047
233	0xbd131a73	-0.035913896
234	0x3d76487f	0.06012773
235	0x3ce33d52	0.0277392
236	0xbc1e44a6	-0.009659922
237	0x3ca89ef6	0.020583611
238	0xbd7bb239	-0.061449263
239	0xbcd45634	-0.025920011
240	0x3c669c6b	0.014075379
241	0xbc08fc70	-0.008360967
242	0xbd177d65	-0.03698482
243	0xbc6d6e0b	-0.014491568
244	0xbcd27baf	-0.025693743
245	0xbcda327f	-0.026635407
246	0xbd1e834d	-0.038699437
247	0x3cc31b40	0.023816705
248	0x3cb3fd5f	0.021971403
249	0x3d6367b8	0.055518836
250	0xbc89411f	-0.016754685
251	0xbd1a9c0c	-0.037746474
252	0x3d4bfb58	0.049800247
253	0x3d56cfa6	0.052444123
254	0xbd2eeda9	-0.04270712
255	0xbd1b6bdf	-0.03794467

trunk.3.bn.weight f4 [32]
0	0x3f7fda1e	0.99942195
1	0x3f80926e	1.0044687
2	0x3f7eb74d	0.99498445
3	0x3f8079fa	1.0037224
4	0x3f81475d	1.0099903
5	0x3f80a7c5	1.0051199
6	0x3f7f62b2	0.9975997
7	0x3f8086ac	1.0041099
8	0x3f804b15	1.0022913
9	0x3f817863	1.0114864
10	0x3f7d51b6	0.98952806
11	0x3f7da0ad	0.99073297
12	0x3f806278	1.003005
13	0x3f7de6d2	0.9918033
14	0x3f803922	1.0017436
15	0x3f80765b	1.0036119
16	0x3f7ea49f	0.9946994
17	0x3f803584	1.0016332
18	0x3f7f5b79	0.9974895
19	0x3f80c7ad	1.0060936
20	0x3f7faf17	0.9987654
21	0x3f7f3b4e	0.99699867
22	0x3f80fc60	1.0077019
23	0x3f80395e	1.0017507
24	0x3f807d10	1.0038166
25	0x3f7ee433	0.99566954
26	0x3f7fe9f5	0.99966365
27	0x3f803512	1.0016196
28	0x3f802193	1.0010246
29	0x3f815a63	1.0105709
30	0x3f800ae7	1.0003327
31	0x3f7dec6f	0.99188894

trunk.3.bn.bias f4 [32]
0	0x3c16023a	0.009155804
1	0x3b2c4340	0.0026285201
2	0x3bd5eaec	0.006528249
3	0xbbeceb73	-0.007230216
4	0x3af7fc34	0.0018919767
5	0x3be23a3c	0.0069039147
6	0xbac6e1d8	-0.0015173508
7	0x3b839bc2	0.0040163705
8	0xb96f0e3c	-0.00022798119
9	0x3a56863c	0.00081834546
10	0xbb91a028	-0.004444141
11	0xbb5fa888	-0.0034127552
12	0xbb52d923	-0.003217288
13	0x3bb414e3	0.005495654
14	0x3abe1f46	0.001450517
15	0x3bed2253	0.007236758
16	0x3b89b5e6	0.004202592
17	0x3b154127	0.002277443
18	0x3b84b5e8	0.004050005
19	0x39e31234	0.00043310376
20	0xbb7c0cf0	-0.003845986
21	0xbbf4fdf8	-0.0074765645
22	0xba5d7a52	-0.0008448708
23	0x3aed14d3	0.0018087871
24	0xbac34ef9	-0.0014900855
25	0x3b38e1aa	0.0028210678
26	0xbb44bd4c	-0.0030020056
27	0x3b9fa976	0.0048724962
28	0xbba1ac2d	-0.004933855
29	0x3a9fa268	0.0012179138
30	0x3b7cfb58	0.003860196
31	0x3b5d1093	0.0033731803

trunk.3.bn.running_mean f4 [32]
0	0x3e4f196a	0.20224538
1	0xbdaa8c2f	-0.08327519
2	0xbed60dd1	-0.41807416
3	0x3ec66e5b	0.3875607
4	0x3eb5f0e5	0.3553535
5	0xbc63ff76	-0.013915887
6	0xbe16e9bd	-0.14737602
7	0xbdae4946	-0.085100695
8	0x3e31b442	0.17353919
9	0x3bb19df9	0.005420443
10	0xbd063f82	-0.03277541
11	0x3e7f249f	0.24916314
12	0xbb0a55bb	-0.0021108228
13	0x3d6718b3	0.05642004
14	0x3da3240a	0.07965858
15	0xbd056730	-0.03256911
16	0x3ce72dd0	0.028220087
17	0xbe8c35b7	-0.2738473
18	0x3e76c7e6	0.24099693
19	0xbd0f8f5c	-0.035048828
20	0xbe4c9fc9	-0.19982828
21	0x3f033f4d	0.51268464
22	0x3d5b7e68	0.053587347
23	0x3d2f67e1	0.042823676
24	0xbdf2d2ea	-0.11856635
25	0xbea44a49	-0.32087925
26	0x3ca2332a	0.019799788
27	0x3da2099e	0.079119906
28	0xbf1fb0f6	-0.62379396
29	0x3e35ef50	0.17767072
30	0xbe15e40a	-0.14637771
31	0xbe452efe	-0.19256207
